{"format": "graph-model", "generatedBy": "2.15.0", "convertedBy": "TensorFlow.js Converter v4.20.0", "signature": {"inputs": {"conv2d_input": {"name": "conv2d_input:0", "dtype": "DT_FLOAT", "tensorShape": {"dim": [{"size": "-1"}, {"size": "224"}, {"size": "224"}, {"size": "1"}]}}}, "outputs": {"output_0": {"name": "Identity:0", "dtype": "DT_FLOAT", "tensorShape": {"dim": [{"size": "-1"}, {"size": "24"}]}}}}, "modelTopology": {"node": [{"name": "StatefulPartitionedCall/sequential/dense_2/Tensordot/Const", "op": "Const", "attr": {"dtype": {"type": "DT_INT32"}, "value": {"tensor": {"dtype": "DT_INT32", "tensorShape": {"dim": [{"size": "1"}]}}}}}, {"name": "StatefulPartitionedCall/sequential/dense_2/Tensordot/axes", "op": "Const", "attr": {"value": {"tensor": {"dtype": "DT_INT32", "tensorShape": {"dim": [{"size": "1"}]}}}, "dtype": {"type": "DT_INT32"}}}, {"name": "StatefulPartitionedCall/sequential/dense_2/Tensordot/GatherV2_1/axis", "op": "Const", "attr": {"value": {"tensor": {"dtype": "DT_INT32", "tensorShape": {}}}, "dtype": {"type": "DT_INT32"}}}, {"name": "StatefulPartitionedCall/sequential/dense_2/Tensordot/Const_1", "op": "Const", "attr": {"value": {"tensor": {"dtype": "DT_INT32", "tensorShape": {"dim": [{"size": "1"}]}}}, "dtype": {"type": "DT_INT32"}}}, {"name": "StatefulPartitionedCall/sequential/dense_2/Tensordot/ReadVariableOp", "op": "Const", "attr": {"value": {"tensor": {"dtype": "DT_FLOAT", "tensorShape": {"dim": [{"size": "256"}, {"size": "128"}]}}}, "dtype": {"type": "DT_FLOAT"}}}, {"name": "StatefulPartitionedCall/sequential/dense_1/Tensordot/Const", "op": "Const", "attr": {"dtype": {"type": "DT_INT32"}, "value": {"tensor": {"dtype": "DT_INT32", "tensorShape": {"dim": [{"size": "1"}]}}}}}, {"name": "StatefulPartitionedCall/sequential/dense_1/Tensordot/axes", "op": "Const", "attr": {"dtype": {"type": "DT_INT32"}, "value": {"tensor": {"dtype": "DT_INT32", "tensorShape": {"dim": [{"size": "1"}]}}}}}, {"name": "StatefulPartitionedCall/sequential/dense_1/Tensordot/GatherV2_1/axis", "op": "Const", "attr": {"value": {"tensor": {"dtype": "DT_INT32", "tensorShape": {}}}, "dtype": {"type": "DT_INT32"}}}, {"name": "StatefulPartitionedCall/sequential/dense_1/Tensordot/Const_1", "op": "Const", "attr": {"value": {"tensor": {"dtype": "DT_INT32", "tensorShape": {"dim": [{"size": "1"}]}}}, "dtype": {"type": "DT_INT32"}}}, {"name": "StatefulPartitionedCall/sequential/dense_1/Tensordot/ReadVariableOp", "op": "Const", "attr": {"dtype": {"type": "DT_FLOAT"}, "value": {"tensor": {"dtype": "DT_FLOAT", "tensorShape": {"dim": [{"size": "512"}, {"size": "256"}]}}}}}, {"name": "StatefulPartitionedCall/sequential/dense/Tensordot/Const", "op": "Const", "attr": {"dtype": {"type": "DT_INT32"}, "value": {"tensor": {"dtype": "DT_INT32", "tensorShape": {"dim": [{"size": "1"}]}}}}}, {"name": "StatefulPartitionedCall/sequential/dense/Tensordot/axes", "op": "Const", "attr": {"dtype": {"type": "DT_INT32"}, "value": {"tensor": {"dtype": "DT_INT32", "tensorShape": {"dim": [{"size": "1"}]}}}}}, {"name": "StatefulPartitionedCall/sequential/dense/Tensordot/GatherV2_1/axis", "op": "Const", "attr": {"value": {"tensor": {"dtype": "DT_INT32", "tensorShape": {}}}, "dtype": {"type": "DT_INT32"}}}, {"name": "StatefulPartitionedCall/sequential/dense/Tensordot/Const_1", "op": "Const", "attr": {"dtype": {"type": "DT_INT32"}, "value": {"tensor": {"dtype": "DT_INT32", "tensorShape": {"dim": [{"size": "1"}]}}}}}, {"name": "StatefulPartitionedCall/sequential/dense/Tensordot/ReadVariableOp", "op": "Const", "attr": {"value": {"tensor": {"dtype": "DT_FLOAT", "tensorShape": {"dim": [{"size": "256"}, {"size": "512"}]}}}, "dtype": {"type": "DT_FLOAT"}}}, {"name": "StatefulPartitionedCall/sequential/conv2d/Conv2D/ReadVariableOp", "op": "Const", "attr": {"dtype": {"type": "DT_FLOAT"}, "value": {"tensor": {"dtype": "DT_FLOAT", "tensorShape": {"dim": [{"size": "3"}, {"size": "3"}, {"size": "1"}, {"size": "32"}]}}}}}, {"name": "StatefulPartitionedCall/sequential/conv2d/BiasAdd/ReadVariableOp", "op": "Const", "attr": {"dtype": {"type": "DT_FLOAT"}, "value": {"tensor": {"dtype": "DT_FLOAT", "tensorShape": {"dim": [{"size": "32"}]}}}}}, {"name": "StatefulPartitionedCall/sequential/conv2d_1/Conv2D/ReadVariableOp", "op": "Const", "attr": {"value": {"tensor": {"dtype": "DT_FLOAT", "tensorShape": {"dim": [{"size": "3"}, {"size": "3"}, {"size": "32"}, {"size": "64"}]}}}, "dtype": {"type": "DT_FLOAT"}}}, {"name": "StatefulPartitionedCall/sequential/conv2d_1/BiasAdd/ReadVariableOp", "op": "Const", "attr": {"value": {"tensor": {"dtype": "DT_FLOAT", "tensorShape": {"dim": [{"size": "64"}]}}}, "dtype": {"type": "DT_FLOAT"}}}, {"name": "StatefulPartitionedCall/sequential/conv2d_2/Conv2D/ReadVariableOp", "op": "Const", "attr": {"dtype": {"type": "DT_FLOAT"}, "value": {"tensor": {"dtype": "DT_FLOAT", "tensorShape": {"dim": [{"size": "3"}, {"size": "3"}, {"size": "64"}, {"size": "128"}]}}}}}, {"name": "StatefulPartitionedCall/sequential/conv2d_2/BiasAdd/ReadVariableOp", "op": "Const", "attr": {"dtype": {"type": "DT_FLOAT"}, "value": {"tensor": {"dtype": "DT_FLOAT", "tensorShape": {"dim": [{"size": "128"}]}}}}}, {"name": "StatefulPartitionedCall/sequential/conv2d_3/Conv2D/ReadVariableOp", "op": "Const", "attr": {"value": {"tensor": {"dtype": "DT_FLOAT", "tensorShape": {"dim": [{"size": "3"}, {"size": "3"}, {"size": "128"}, {"size": "128"}]}}}, "dtype": {"type": "DT_FLOAT"}}}, {"name": "StatefulPartitionedCall/sequential/conv2d_3/BiasAdd/ReadVariableOp", "op": "Const", "attr": {"dtype": {"type": "DT_FLOAT"}, "value": {"tensor": {"dtype": "DT_FLOAT", "tensorShape": {"dim": [{"size": "128"}]}}}}}, {"name": "StatefulPartitionedCall/sequential/conv2d_4/Conv2D/ReadVariableOp", "op": "Const", "attr": {"dtype": {"type": "DT_FLOAT"}, "value": {"tensor": {"dtype": "DT_FLOAT", "tensorShape": {"dim": [{"size": "3"}, {"size": "3"}, {"size": "128"}, {"size": "128"}]}}}}}, {"name": "StatefulPartitionedCall/sequential/conv2d_4/BiasAdd/ReadVariableOp", "op": "Const", "attr": {"value": {"tensor": {"dtype": "DT_FLOAT", "tensorShape": {"dim": [{"size": "128"}]}}}, "dtype": {"type": "DT_FLOAT"}}}, {"name": "StatefulPartitionedCall/sequential/conv2d_5/Conv2D/ReadVariableOp", "op": "Const", "attr": {"dtype": {"type": "DT_FLOAT"}, "value": {"tensor": {"dtype": "DT_FLOAT", "tensorShape": {"dim": [{"size": "3"}, {"size": "3"}, {"size": "128"}, {"size": "256"}]}}}}}, {"name": "StatefulPartitionedCall/sequential/conv2d_5/BiasAdd/ReadVariableOp", "op": "Const", "attr": {"value": {"tensor": {"dtype": "DT_FLOAT", "tensorShape": {"dim": [{"size": "256"}]}}}, "dtype": {"type": "DT_FLOAT"}}}, {"name": "StatefulPartitionedCall/sequential/dense/Tensordot/free", "op": "Const", "attr": {"dtype": {"type": "DT_INT32"}, "value": {"tensor": {"dtype": "DT_INT32", "tensorShape": {"dim": [{"size": "3"}]}}}}}, {"name": "StatefulPartitionedCall/sequential/dense/Tensordot/GatherV2/axis", "op": "Const", "attr": {"dtype": {"type": "DT_INT32"}, "value": {"tensor": {"dtype": "DT_INT32", "tensorShape": {}}}}}, {"name": "StatefulPartitionedCall/sequential/dense/Tensordot/Const_2", "op": "Const", "attr": {"dtype": {"type": "DT_INT32"}, "value": {"tensor": {"dtype": "DT_INT32", "tensorShape": {"dim": [{"size": "1"}]}}}}}, {"name": "StatefulPartitionedCall/sequential/dense/Tensordot/concat_1/axis", "op": "Const", "attr": {"dtype": {"type": "DT_INT32"}, "value": {"tensor": {"dtype": "DT_INT32", "tensorShape": {}}}}}, {"name": "StatefulPartitionedCall/sequential/dense/BiasAdd/ReadVariableOp", "op": "Const", "attr": {"dtype": {"type": "DT_FLOAT"}, "value": {"tensor": {"dtype": "DT_FLOAT", "tensorShape": {"dim": [{"size": "512"}]}}}}}, {"name": "StatefulPartitionedCall/sequential/dense_1/Tensordot/free", "op": "Const", "attr": {"value": {"tensor": {"dtype": "DT_INT32", "tensorShape": {"dim": [{"size": "3"}]}}}, "dtype": {"type": "DT_INT32"}}}, {"name": "StatefulPartitionedCall/sequential/dense_1/Tensordot/GatherV2/axis", "op": "Const", "attr": {"value": {"tensor": {"dtype": "DT_INT32", "tensorShape": {}}}, "dtype": {"type": "DT_INT32"}}}, {"name": "StatefulPartitionedCall/sequential/dense_1/Tensordot/Const_2", "op": "Const", "attr": {"value": {"tensor": {"dtype": "DT_INT32", "tensorShape": {"dim": [{"size": "1"}]}}}, "dtype": {"type": "DT_INT32"}}}, {"name": "StatefulPartitionedCall/sequential/dense_1/Tensordot/concat_1/axis", "op": "Const", "attr": {"value": {"tensor": {"dtype": "DT_INT32", "tensorShape": {}}}, "dtype": {"type": "DT_INT32"}}}, {"name": "StatefulPartitionedCall/sequential/dense_1/BiasAdd/ReadVariableOp", "op": "Const", "attr": {"dtype": {"type": "DT_FLOAT"}, "value": {"tensor": {"dtype": "DT_FLOAT", "tensorShape": {"dim": [{"size": "256"}]}}}}}, {"name": "StatefulPartitionedCall/sequential/dense_2/Tensordot/free", "op": "Const", "attr": {"value": {"tensor": {"dtype": "DT_INT32", "tensorShape": {"dim": [{"size": "3"}]}}}, "dtype": {"type": "DT_INT32"}}}, {"name": "StatefulPartitionedCall/sequential/dense_2/Tensordot/GatherV2/axis", "op": "Const", "attr": {"dtype": {"type": "DT_INT32"}, "value": {"tensor": {"dtype": "DT_INT32", "tensorShape": {}}}}}, {"name": "StatefulPartitionedCall/sequential/dense_2/Tensordot/Const_2", "op": "Const", "attr": {"dtype": {"type": "DT_INT32"}, "value": {"tensor": {"dtype": "DT_INT32", "tensorShape": {"dim": [{"size": "1"}]}}}}}, {"name": "StatefulPartitionedCall/sequential/dense_2/Tensordot/concat_1/axis", "op": "Const", "attr": {"dtype": {"type": "DT_INT32"}, "value": {"tensor": {"dtype": "DT_INT32", "tensorShape": {}}}}}, {"name": "StatefulPartitionedCall/sequential/dense_2/BiasAdd/ReadVariableOp", "op": "Const", "attr": {"dtype": {"type": "DT_FLOAT"}, "value": {"tensor": {"dtype": "DT_FLOAT", "tensorShape": {"dim": [{"size": "128"}]}}}}}, {"name": "StatefulPartitionedCall/sequential/flatten/Const", "op": "Const", "attr": {"value": {"tensor": {"dtype": "DT_INT32", "tensorShape": {"dim": [{"size": "2"}]}}}, "dtype": {"type": "DT_INT32"}}}, {"name": "StatefulPartitionedCall/sequential/dense_3/MatMul/ReadVariableOp", "op": "Const", "attr": {"value": {"tensor": {"dtype": "DT_FLOAT", "tensorShape": {"dim": [{"size": "512"}, {"size": "24"}]}}}, "dtype": {"type": "DT_FLOAT"}}}, {"name": "StatefulPartitionedCall/sequential/dense_3/BiasAdd/ReadVariableOp", "op": "Const", "attr": {"value": {"tensor": {"dtype": "DT_FLOAT", "tensorShape": {"dim": [{"size": "24"}]}}}, "dtype": {"type": "DT_FLOAT"}}}, {"name": "conv2d_input", "op": "Placeholder", "attr": {"dtype": {"type": "DT_FLOAT"}, "shape": {"shape": {"dim": [{"size": "-1"}, {"size": "224"}, {"size": "224"}, {"size": "1"}]}}}}, {"name": "StatefulPartitionedCall/sequential/batch_normalization_1/FusedBatchNormV3/Scaled", "op": "Const", "attr": {"value": {"tensor": {"dtype": "DT_FLOAT", "tensorShape": {"dim": [{"size": "64"}]}}}, "dtype": {"type": "DT_FLOAT"}}}, {"name": "StatefulPartitionedCall/sequential/batch_normalization_1/FusedBatchNormV3/Offset", "op": "Const", "attr": {"value": {"tensor": {"dtype": "DT_FLOAT", "tensorShape": {"dim": [{"size": "64"}]}}}, "dtype": {"type": "DT_FLOAT"}}}, {"name": "StatefulPartitionedCall/sequential/batch_normalization/FusedBatchNormV3/Scaled", "op": "Const", "attr": {"value": {"tensor": {"dtype": "DT_FLOAT", "tensorShape": {"dim": [{"size": "32"}]}}}, "dtype": {"type": "DT_FLOAT"}}}, {"name": "StatefulPartitionedCall/sequential/batch_normalization/FusedBatchNormV3/Offset", "op": "Const", "attr": {"dtype": {"type": "DT_FLOAT"}, "value": {"tensor": {"dtype": "DT_FLOAT", "tensorShape": {"dim": [{"size": "32"}]}}}}}, {"name": "StatefulPartitionedCall/sequential/conv2d/Relu", "op": "_FusedConv2D", "input": ["conv2d_input", "StatefulPartitionedCall/sequential/conv2d/Conv2D/ReadVariableOp", "StatefulPartitionedCall/sequential/conv2d/BiasAdd/ReadVariableOp"], "device": "/device:CPU:0", "attr": {"T": {"type": "DT_FLOAT"}, "leakyrelu_alpha": {"f": 0.2}, "num_host_args": {"i": "0"}, "filter_format": {"s": "SFdJTw=="}, "dilations": {"list": {"i": ["1", "1", "1", "1"]}}, "explicit_paddings": {"list": {}}, "fused_ops": {"list": {"s": ["Qmlhc0FkZA==", "UmVsdQ=="]}}, "epsilon": {"f": 0.0}, "use_cudnn_on_gpu": {"b": true}, "num_args": {"i": "1"}, "strides": {"list": {"i": ["1", "1", "1", "1"]}}, "data_format": {"s": "TkhXQw=="}, "TArgs": {"list": {"type": ["DT_FLOAT"]}}, "padding": {"s": "VkFMSUQ="}}}, {"name": "StatefulPartitionedCall/sequential/batch_normalization/FusedBatchNormV3/Mul", "op": "Mul", "input": ["StatefulPartitionedCall/sequential/conv2d/Relu", "StatefulPartitionedCall/sequential/batch_normalization/FusedBatchNormV3/Scaled"], "attr": {"T": {"type": "DT_FLOAT"}}}, {"name": "StatefulPartitionedCall/sequential/batch_normalization/FusedBatchNormV3", "op": "Add", "input": ["StatefulPartitionedCall/sequential/batch_normalization/FusedBatchNormV3/Mul", "StatefulPartitionedCall/sequential/batch_normalization/FusedBatchNormV3/Offset"], "attr": {"T": {"type": "DT_FLOAT"}}}, {"name": "StatefulPartitionedCall/sequential/max_pooling2d/MaxPool", "op": "MaxPool", "input": ["StatefulPartitionedCall/sequential/batch_normalization/FusedBatchNormV3"], "attr": {"ksize": {"list": {"i": ["1", "2", "2", "1"]}}, "padding": {"s": "VkFMSUQ="}, "data_format": {"s": "TkhXQw=="}, "strides": {"list": {"i": ["1", "2", "2", "1"]}}, "explicit_paddings": {"list": {}}, "T": {"type": "DT_FLOAT"}}}, {"name": "StatefulPartitionedCall/sequential/conv2d_1/Relu", "op": "_FusedConv2D", "input": ["StatefulPartitionedCall/sequential/max_pooling2d/MaxPool", "StatefulPartitionedCall/sequential/conv2d_1/Conv2D/ReadVariableOp", "StatefulPartitionedCall/sequential/conv2d_1/BiasAdd/ReadVariableOp"], "device": "/device:CPU:0", "attr": {"use_cudnn_on_gpu": {"b": true}, "data_format": {"s": "TkhXQw=="}, "num_host_args": {"i": "0"}, "dilations": {"list": {"i": ["1", "1", "1", "1"]}}, "T": {"type": "DT_FLOAT"}, "explicit_paddings": {"list": {}}, "filter_format": {"s": "SFdJTw=="}, "leakyrelu_alpha": {"f": 0.2}, "num_args": {"i": "1"}, "TArgs": {"list": {"type": ["DT_FLOAT"]}}, "strides": {"list": {"i": ["1", "1", "1", "1"]}}, "fused_ops": {"list": {"s": ["Qmlhc0FkZA==", "UmVsdQ=="]}}, "epsilon": {"f": 0.0}, "padding": {"s": "VkFMSUQ="}}}, {"name": "StatefulPartitionedCall/sequential/batch_normalization_1/FusedBatchNormV3/Mul", "op": "Mul", "input": ["StatefulPartitionedCall/sequential/conv2d_1/Relu", "StatefulPartitionedCall/sequential/batch_normalization_1/FusedBatchNormV3/Scaled"], "attr": {"T": {"type": "DT_FLOAT"}}}, {"name": "StatefulPartitionedCall/sequential/batch_normalization_1/FusedBatchNormV3", "op": "Add", "input": ["StatefulPartitionedCall/sequential/batch_normalization_1/FusedBatchNormV3/Mul", "StatefulPartitionedCall/sequential/batch_normalization_1/FusedBatchNormV3/Offset"], "attr": {"T": {"type": "DT_FLOAT"}}}, {"name": "StatefulPartitionedCall/sequential/max_pooling2d_1/MaxPool", "op": "MaxPool", "input": ["StatefulPartitionedCall/sequential/batch_normalization_1/FusedBatchNormV3"], "attr": {"padding": {"s": "VkFMSUQ="}, "T": {"type": "DT_FLOAT"}, "ksize": {"list": {"i": ["1", "2", "2", "1"]}}, "strides": {"list": {"i": ["1", "2", "2", "1"]}}, "data_format": {"s": "TkhXQw=="}, "explicit_paddings": {"list": {}}}}, {"name": "StatefulPartitionedCall/sequential/conv2d_2/Relu", "op": "_FusedConv2D", "input": ["StatefulPartitionedCall/sequential/max_pooling2d_1/MaxPool", "StatefulPartitionedCall/sequential/conv2d_2/Conv2D/ReadVariableOp", "StatefulPartitionedCall/sequential/conv2d_2/BiasAdd/ReadVariableOp"], "device": "/device:CPU:0", "attr": {"epsilon": {"f": 0.0}, "fused_ops": {"list": {"s": ["Qmlhc0FkZA==", "UmVsdQ=="]}}, "dilations": {"list": {"i": ["1", "1", "1", "1"]}}, "explicit_paddings": {"list": {}}, "use_cudnn_on_gpu": {"b": true}, "strides": {"list": {"i": ["1", "1", "1", "1"]}}, "num_host_args": {"i": "0"}, "TArgs": {"list": {"type": ["DT_FLOAT"]}}, "T": {"type": "DT_FLOAT"}, "filter_format": {"s": "SFdJTw=="}, "leakyrelu_alpha": {"f": 0.2}, "data_format": {"s": "TkhXQw=="}, "padding": {"s": "VkFMSUQ="}, "num_args": {"i": "1"}}}, {"name": "StatefulPartitionedCall/sequential/conv2d_3/Relu", "op": "_FusedConv2D", "input": ["StatefulPartitionedCall/sequential/conv2d_2/Relu", "StatefulPartitionedCall/sequential/conv2d_3/Conv2D/ReadVariableOp", "StatefulPartitionedCall/sequential/conv2d_3/BiasAdd/ReadVariableOp"], "device": "/device:CPU:0", "attr": {"TArgs": {"list": {"type": ["DT_FLOAT"]}}, "strides": {"list": {"i": ["1", "1", "1", "1"]}}, "use_cudnn_on_gpu": {"b": true}, "epsilon": {"f": 0.0}, "fused_ops": {"list": {"s": ["Qmlhc0FkZA==", "UmVsdQ=="]}}, "data_format": {"s": "TkhXQw=="}, "T": {"type": "DT_FLOAT"}, "dilations": {"list": {"i": ["1", "1", "1", "1"]}}, "num_args": {"i": "1"}, "filter_format": {"s": "SFdJTw=="}, "explicit_paddings": {"list": {}}, "leakyrelu_alpha": {"f": 0.2}, "padding": {"s": "VkFMSUQ="}, "num_host_args": {"i": "0"}}}, {"name": "StatefulPartitionedCall/sequential/max_pooling2d_2/MaxPool", "op": "MaxPool", "input": ["StatefulPartitionedCall/sequential/conv2d_3/Relu"], "attr": {"explicit_paddings": {"list": {}}, "padding": {"s": "VkFMSUQ="}, "data_format": {"s": "TkhXQw=="}, "T": {"type": "DT_FLOAT"}, "strides": {"list": {"i": ["1", "2", "2", "1"]}}, "ksize": {"list": {"i": ["1", "2", "2", "1"]}}}}, {"name": "StatefulPartitionedCall/sequential/conv2d_4/Relu", "op": "_FusedConv2D", "input": ["StatefulPartitionedCall/sequential/max_pooling2d_2/MaxPool", "StatefulPartitionedCall/sequential/conv2d_4/Conv2D/ReadVariableOp", "StatefulPartitionedCall/sequential/conv2d_4/BiasAdd/ReadVariableOp"], "device": "/device:CPU:0", "attr": {"padding": {"s": "VkFMSUQ="}, "TArgs": {"list": {"type": ["DT_FLOAT"]}}, "dilations": {"list": {"i": ["1", "1", "1", "1"]}}, "num_host_args": {"i": "0"}, "use_cudnn_on_gpu": {"b": true}, "filter_format": {"s": "SFdJTw=="}, "T": {"type": "DT_FLOAT"}, "epsilon": {"f": 0.0}, "strides": {"list": {"i": ["1", "1", "1", "1"]}}, "fused_ops": {"list": {"s": ["Qmlhc0FkZA==", "UmVsdQ=="]}}, "explicit_paddings": {"list": {}}, "num_args": {"i": "1"}, "leakyrelu_alpha": {"f": 0.2}, "data_format": {"s": "TkhXQw=="}}}, {"name": "StatefulPartitionedCall/sequential/conv2d_5/Relu", "op": "_FusedConv2D", "input": ["StatefulPartitionedCall/sequential/conv2d_4/Relu", "StatefulPartitionedCall/sequential/conv2d_5/Conv2D/ReadVariableOp", "StatefulPartitionedCall/sequential/conv2d_5/BiasAdd/ReadVariableOp"], "device": "/device:CPU:0", "attr": {"filter_format": {"s": "SFdJTw=="}, "strides": {"list": {"i": ["1", "1", "1", "1"]}}, "dilations": {"list": {"i": ["1", "1", "1", "1"]}}, "leakyrelu_alpha": {"f": 0.2}, "num_args": {"i": "1"}, "num_host_args": {"i": "0"}, "use_cudnn_on_gpu": {"b": true}, "epsilon": {"f": 0.0}, "TArgs": {"list": {"type": ["DT_FLOAT"]}}, "data_format": {"s": "TkhXQw=="}, "padding": {"s": "VkFMSUQ="}, "fused_ops": {"list": {"s": ["Qmlhc0FkZA==", "UmVsdQ=="]}}, "explicit_paddings": {"list": {}}, "T": {"type": "DT_FLOAT"}}}, {"name": "StatefulPartitionedCall/sequential/max_pooling2d_3/MaxPool", "op": "MaxPool", "input": ["StatefulPartitionedCall/sequential/conv2d_5/Relu"], "attr": {"explicit_paddings": {"list": {}}, "data_format": {"s": "TkhXQw=="}, "ksize": {"list": {"i": ["1", "2", "2", "1"]}}, "T": {"type": "DT_FLOAT"}, "strides": {"list": {"i": ["1", "2", "2", "1"]}}, "padding": {"s": "VkFMSUQ="}}}, {"name": "StatefulPartitionedCall/sequential/dense/Tensordot/Shape", "op": "Shape", "input": ["StatefulPartitionedCall/sequential/max_pooling2d_3/MaxPool"], "attr": {"out_type": {"type": "DT_INT32"}, "T": {"type": "DT_FLOAT"}}, "experimentalType": {"typeId": "TFT_PRODUCT", "args": [{"typeId": "TFT_SHAPE_TENSOR", "args": [{"typeId": "TFT_INT32"}]}]}}, {"name": "StatefulPartitionedCall/sequential/dense/Tensordot/GatherV2_1", "op": "GatherV2", "input": ["StatefulPartitionedCall/sequential/dense/Tensordot/Shape", "StatefulPartitionedCall/sequential/dense/Tensordot/axes", "StatefulPartitionedCall/sequential/dense/Tensordot/GatherV2_1/axis"], "attr": {"Tindices": {"type": "DT_INT32"}, "Taxis": {"type": "DT_INT32"}, "batch_dims": {"i": "0"}, "Tparams": {"type": "DT_INT32"}}}, {"name": "StatefulPartitionedCall/sequential/dense/Tensordot/GatherV2", "op": "GatherV2", "input": ["StatefulPartitionedCall/sequential/dense/Tensordot/Shape", "StatefulPartitionedCall/sequential/dense/Tensordot/free", "StatefulPartitionedCall/sequential/dense/Tensordot/GatherV2/axis"], "attr": {"Tindices": {"type": "DT_INT32"}, "Tparams": {"type": "DT_INT32"}, "Taxis": {"type": "DT_INT32"}, "batch_dims": {"i": "0"}}}, {"name": "StatefulPartitionedCall/sequential/dense/Tensordot/Prod_1", "op": "Prod", "input": ["StatefulPartitionedCall/sequential/dense/Tensordot/GatherV2_1", "StatefulPartitionedCall/sequential/dense/Tensordot/Const_1"], "attr": {"keep_dims": {"b": false}, "Tidx": {"type": "DT_INT32"}, "T": {"type": "DT_INT32"}}}, {"name": "StatefulPartitionedCall/sequential/dense/Tensordot/Prod", "op": "Prod", "input": ["StatefulPartitionedCall/sequential/dense/Tensordot/GatherV2", "StatefulPartitionedCall/sequential/dense/Tensordot/Const"], "attr": {"T": {"type": "DT_INT32"}, "keep_dims": {"b": false}, "Tidx": {"type": "DT_INT32"}}}, {"name": "StatefulPartitionedCall/sequential/dense/Tensordot/concat_1", "op": "ConcatV2", "input": ["StatefulPartitionedCall/sequential/dense/Tensordot/GatherV2", "StatefulPartitionedCall/sequential/dense/Tensordot/Const_2", "StatefulPartitionedCall/sequential/dense/Tensordot/concat_1/axis"], "attr": {"Tidx": {"type": "DT_INT32"}, "T": {"type": "DT_INT32"}, "N": {"i": "2"}}}, {"name": "StatefulPartitionedCall/sequential/dense/Tensordot/stack", "op": "Pack", "input": ["StatefulPartitionedCall/sequential/dense/Tensordot/Prod", "StatefulPartitionedCall/sequential/dense/Tensordot/Prod_1"], "attr": {"N": {"i": "2"}, "axis": {"i": "0"}, "T": {"type": "DT_INT32"}}}, {"name": "StatefulPartitionedCall/sequential/dense/Tensordot/Reshape", "op": "Reshape", "input": ["StatefulPartitionedCall/sequential/max_pooling2d_3/MaxPool", "StatefulPartitionedCall/sequential/dense/Tensordot/stack"], "attr": {"T": {"type": "DT_FLOAT"}, "Tshape": {"type": "DT_INT32"}}}, {"name": "StatefulPartitionedCall/sequential/dense/Tensordot/MatMul", "op": "MatMul", "input": ["StatefulPartitionedCall/sequential/dense/Tensordot/Reshape", "StatefulPartitionedCall/sequential/dense/Tensordot/ReadVariableOp"], "device": "/device:CPU:0", "attr": {"transpose_b": {"b": false}, "T": {"type": "DT_FLOAT"}, "grad_a": {"b": false}, "grad_b": {"b": false}, "transpose_a": {"b": false}}}, {"name": "StatefulPartitionedCall/sequential/dense/Tensordot", "op": "Reshape", "input": ["StatefulPartitionedCall/sequential/dense/Tensordot/MatMul", "StatefulPartitionedCall/sequential/dense/Tensordot/concat_1"], "attr": {"Tshape": {"type": "DT_INT32"}, "T": {"type": "DT_FLOAT"}}}, {"name": "StatefulPartitionedCall/sequential/dense/BiasAdd", "op": "BiasAdd", "input": ["StatefulPartitionedCall/sequential/dense/Tensordot", "StatefulPartitionedCall/sequential/dense/BiasAdd/ReadVariableOp"], "attr": {"T": {"type": "DT_FLOAT"}, "data_format": {"s": "TkhXQw=="}}}, {"name": "StatefulPartitionedCall/sequential/dense/Relu", "op": "Relu", "input": ["StatefulPartitionedCall/sequential/dense/BiasAdd"], "attr": {"T": {"type": "DT_FLOAT"}}}, {"name": "StatefulPartitionedCall/sequential/max_pooling2d_4/MaxPool", "op": "MaxPool", "input": ["StatefulPartitionedCall/sequential/dense/Relu"], "attr": {"ksize": {"list": {"i": ["1", "2", "2", "1"]}}, "T": {"type": "DT_FLOAT"}, "strides": {"list": {"i": ["1", "2", "2", "1"]}}, "explicit_paddings": {"list": {}}, "data_format": {"s": "TkhXQw=="}, "padding": {"s": "VkFMSUQ="}}}, {"name": "StatefulPartitionedCall/sequential/dense_1/Tensordot/Shape", "op": "Shape", "input": ["StatefulPartitionedCall/sequential/max_pooling2d_4/MaxPool"], "attr": {"T": {"type": "DT_FLOAT"}, "out_type": {"type": "DT_INT32"}}, "experimentalType": {"typeId": "TFT_PRODUCT", "args": [{"typeId": "TFT_SHAPE_TENSOR", "args": [{"typeId": "TFT_INT32"}]}]}}, {"name": "StatefulPartitionedCall/sequential/dense_1/Tensordot/GatherV2_1", "op": "GatherV2", "input": ["StatefulPartitionedCall/sequential/dense_1/Tensordot/Shape", "StatefulPartitionedCall/sequential/dense_1/Tensordot/axes", "StatefulPartitionedCall/sequential/dense_1/Tensordot/GatherV2_1/axis"], "attr": {"Taxis": {"type": "DT_INT32"}, "batch_dims": {"i": "0"}, "Tparams": {"type": "DT_INT32"}, "Tindices": {"type": "DT_INT32"}}}, {"name": "StatefulPartitionedCall/sequential/dense_1/Tensordot/GatherV2", "op": "GatherV2", "input": ["StatefulPartitionedCall/sequential/dense_1/Tensordot/Shape", "StatefulPartitionedCall/sequential/dense_1/Tensordot/free", "StatefulPartitionedCall/sequential/dense_1/Tensordot/GatherV2/axis"], "attr": {"batch_dims": {"i": "0"}, "Taxis": {"type": "DT_INT32"}, "Tparams": {"type": "DT_INT32"}, "Tindices": {"type": "DT_INT32"}}}, {"name": "StatefulPartitionedCall/sequential/dense_1/Tensordot/Prod_1", "op": "Prod", "input": ["StatefulPartitionedCall/sequential/dense_1/Tensordot/GatherV2_1", "StatefulPartitionedCall/sequential/dense_1/Tensordot/Const_1"], "attr": {"Tidx": {"type": "DT_INT32"}, "keep_dims": {"b": false}, "T": {"type": "DT_INT32"}}}, {"name": "StatefulPartitionedCall/sequential/dense_1/Tensordot/Prod", "op": "Prod", "input": ["StatefulPartitionedCall/sequential/dense_1/Tensordot/GatherV2", "StatefulPartitionedCall/sequential/dense_1/Tensordot/Const"], "attr": {"T": {"type": "DT_INT32"}, "keep_dims": {"b": false}, "Tidx": {"type": "DT_INT32"}}}, {"name": "StatefulPartitionedCall/sequential/dense_1/Tensordot/concat_1", "op": "ConcatV2", "input": ["StatefulPartitionedCall/sequential/dense_1/Tensordot/GatherV2", "StatefulPartitionedCall/sequential/dense_1/Tensordot/Const_2", "StatefulPartitionedCall/sequential/dense_1/Tensordot/concat_1/axis"], "attr": {"N": {"i": "2"}, "T": {"type": "DT_INT32"}, "Tidx": {"type": "DT_INT32"}}}, {"name": "StatefulPartitionedCall/sequential/dense_1/Tensordot/stack", "op": "Pack", "input": ["StatefulPartitionedCall/sequential/dense_1/Tensordot/Prod", "StatefulPartitionedCall/sequential/dense_1/Tensordot/Prod_1"], "attr": {"T": {"type": "DT_INT32"}, "axis": {"i": "0"}, "N": {"i": "2"}}}, {"name": "StatefulPartitionedCall/sequential/dense_1/Tensordot/Reshape", "op": "Reshape", "input": ["StatefulPartitionedCall/sequential/max_pooling2d_4/MaxPool", "StatefulPartitionedCall/sequential/dense_1/Tensordot/stack"], "attr": {"T": {"type": "DT_FLOAT"}, "Tshape": {"type": "DT_INT32"}}}, {"name": "StatefulPartitionedCall/sequential/dense_1/Tensordot/MatMul", "op": "MatMul", "input": ["StatefulPartitionedCall/sequential/dense_1/Tensordot/Reshape", "StatefulPartitionedCall/sequential/dense_1/Tensordot/ReadVariableOp"], "device": "/device:CPU:0", "attr": {"transpose_b": {"b": false}, "transpose_a": {"b": false}, "grad_a": {"b": false}, "grad_b": {"b": false}, "T": {"type": "DT_FLOAT"}}}, {"name": "StatefulPartitionedCall/sequential/dense_1/Tensordot", "op": "Reshape", "input": ["StatefulPartitionedCall/sequential/dense_1/Tensordot/MatMul", "StatefulPartitionedCall/sequential/dense_1/Tensordot/concat_1"], "attr": {"Tshape": {"type": "DT_INT32"}, "T": {"type": "DT_FLOAT"}}}, {"name": "StatefulPartitionedCall/sequential/dense_1/BiasAdd", "op": "BiasAdd", "input": ["StatefulPartitionedCall/sequential/dense_1/Tensordot", "StatefulPartitionedCall/sequential/dense_1/BiasAdd/ReadVariableOp"], "attr": {"T": {"type": "DT_FLOAT"}, "data_format": {"s": "TkhXQw=="}}}, {"name": "StatefulPartitionedCall/sequential/dense_1/Relu", "op": "Relu", "input": ["StatefulPartitionedCall/sequential/dense_1/BiasAdd"], "attr": {"T": {"type": "DT_FLOAT"}}}, {"name": "StatefulPartitionedCall/sequential/max_pooling2d_5/MaxPool", "op": "MaxPool", "input": ["StatefulPartitionedCall/sequential/dense_1/Relu"], "attr": {"data_format": {"s": "TkhXQw=="}, "explicit_paddings": {"list": {}}, "strides": {"list": {"i": ["1", "2", "2", "1"]}}, "padding": {"s": "VkFMSUQ="}, "T": {"type": "DT_FLOAT"}, "ksize": {"list": {"i": ["1", "2", "2", "1"]}}}}, {"name": "StatefulPartitionedCall/sequential/dense_2/Tensordot/Shape", "op": "Shape", "input": ["StatefulPartitionedCall/sequential/max_pooling2d_5/MaxPool"], "attr": {"out_type": {"type": "DT_INT32"}, "T": {"type": "DT_FLOAT"}}, "experimentalType": {"typeId": "TFT_PRODUCT", "args": [{"typeId": "TFT_SHAPE_TENSOR", "args": [{"typeId": "TFT_INT32"}]}]}}, {"name": "StatefulPartitionedCall/sequential/dense_2/Tensordot/GatherV2_1", "op": "GatherV2", "input": ["StatefulPartitionedCall/sequential/dense_2/Tensordot/Shape", "StatefulPartitionedCall/sequential/dense_2/Tensordot/axes", "StatefulPartitionedCall/sequential/dense_2/Tensordot/GatherV2_1/axis"], "attr": {"Tparams": {"type": "DT_INT32"}, "batch_dims": {"i": "0"}, "Tindices": {"type": "DT_INT32"}, "Taxis": {"type": "DT_INT32"}}}, {"name": "StatefulPartitionedCall/sequential/dense_2/Tensordot/GatherV2", "op": "GatherV2", "input": ["StatefulPartitionedCall/sequential/dense_2/Tensordot/Shape", "StatefulPartitionedCall/sequential/dense_2/Tensordot/free", "StatefulPartitionedCall/sequential/dense_2/Tensordot/GatherV2/axis"], "attr": {"batch_dims": {"i": "0"}, "Taxis": {"type": "DT_INT32"}, "Tparams": {"type": "DT_INT32"}, "Tindices": {"type": "DT_INT32"}}}, {"name": "StatefulPartitionedCall/sequential/dense_2/Tensordot/Prod_1", "op": "Prod", "input": ["StatefulPartitionedCall/sequential/dense_2/Tensordot/GatherV2_1", "StatefulPartitionedCall/sequential/dense_2/Tensordot/Const_1"], "attr": {"Tidx": {"type": "DT_INT32"}, "T": {"type": "DT_INT32"}, "keep_dims": {"b": false}}}, {"name": "StatefulPartitionedCall/sequential/dense_2/Tensordot/Prod", "op": "Prod", "input": ["StatefulPartitionedCall/sequential/dense_2/Tensordot/GatherV2", "StatefulPartitionedCall/sequential/dense_2/Tensordot/Const"], "attr": {"T": {"type": "DT_INT32"}, "keep_dims": {"b": false}, "Tidx": {"type": "DT_INT32"}}}, {"name": "StatefulPartitionedCall/sequential/dense_2/Tensordot/concat_1", "op": "ConcatV2", "input": ["StatefulPartitionedCall/sequential/dense_2/Tensordot/GatherV2", "StatefulPartitionedCall/sequential/dense_2/Tensordot/Const_2", "StatefulPartitionedCall/sequential/dense_2/Tensordot/concat_1/axis"], "attr": {"T": {"type": "DT_INT32"}, "N": {"i": "2"}, "Tidx": {"type": "DT_INT32"}}}, {"name": "StatefulPartitionedCall/sequential/dense_2/Tensordot/stack", "op": "Pack", "input": ["StatefulPartitionedCall/sequential/dense_2/Tensordot/Prod", "StatefulPartitionedCall/sequential/dense_2/Tensordot/Prod_1"], "attr": {"N": {"i": "2"}, "T": {"type": "DT_INT32"}, "axis": {"i": "0"}}}, {"name": "StatefulPartitionedCall/sequential/dense_2/Tensordot/Reshape", "op": "Reshape", "input": ["StatefulPartitionedCall/sequential/max_pooling2d_5/MaxPool", "StatefulPartitionedCall/sequential/dense_2/Tensordot/stack"], "attr": {"Tshape": {"type": "DT_INT32"}, "T": {"type": "DT_FLOAT"}}}, {"name": "StatefulPartitionedCall/sequential/dense_2/Tensordot/MatMul", "op": "MatMul", "input": ["StatefulPartitionedCall/sequential/dense_2/Tensordot/Reshape", "StatefulPartitionedCall/sequential/dense_2/Tensordot/ReadVariableOp"], "device": "/device:CPU:0", "attr": {"transpose_b": {"b": false}, "T": {"type": "DT_FLOAT"}, "grad_a": {"b": false}, "grad_b": {"b": false}, "transpose_a": {"b": false}}}, {"name": "StatefulPartitionedCall/sequential/dense_2/Tensordot", "op": "Reshape", "input": ["StatefulPartitionedCall/sequential/dense_2/Tensordot/MatMul", "StatefulPartitionedCall/sequential/dense_2/Tensordot/concat_1"], "attr": {"T": {"type": "DT_FLOAT"}, "Tshape": {"type": "DT_INT32"}}}, {"name": "StatefulPartitionedCall/sequential/dense_2/BiasAdd", "op": "BiasAdd", "input": ["StatefulPartitionedCall/sequential/dense_2/Tensordot", "StatefulPartitionedCall/sequential/dense_2/BiasAdd/ReadVariableOp"], "attr": {"data_format": {"s": "TkhXQw=="}, "T": {"type": "DT_FLOAT"}}}, {"name": "StatefulPartitionedCall/sequential/dense_2/Relu", "op": "Relu", "input": ["StatefulPartitionedCall/sequential/dense_2/BiasAdd"], "attr": {"T": {"type": "DT_FLOAT"}}}, {"name": "StatefulPartitionedCall/sequential/flatten/Reshape", "op": "Reshape", "input": ["StatefulPartitionedCall/sequential/dense_2/Relu", "StatefulPartitionedCall/sequential/flatten/Const"], "attr": {"T": {"type": "DT_FLOAT"}, "Tshape": {"type": "DT_INT32"}}}, {"name": "StatefulPartitionedCall/sequential/dense_3/BiasAdd", "op": "_FusedMatMul", "input": ["StatefulPartitionedCall/sequential/flatten/Reshape", "StatefulPartitionedCall/sequential/dense_3/MatMul/ReadVariableOp", "StatefulPartitionedCall/sequential/dense_3/BiasAdd/ReadVariableOp"], "device": "/device:CPU:0", "attr": {"T": {"type": "DT_FLOAT"}, "epsilon": {"f": 0.0}, "transpose_a": {"b": false}, "fused_ops": {"list": {"s": ["Qmlhc0FkZA=="]}}, "leakyrelu_alpha": {"f": 0.2}, "transpose_b": {"b": false}, "num_args": {"i": "1"}}}, {"name": "StatefulPartitionedCall/sequential/dense_3/Softmax", "op": "Softmax", "input": ["StatefulPartitionedCall/sequential/dense_3/BiasAdd"], "attr": {"T": {"type": "DT_FLOAT"}}}, {"name": "Identity", "op": "Identity", "input": ["StatefulPartitionedCall/sequential/dense_3/Softmax"], "attr": {"T": {"type": "DT_FLOAT"}}}], "library": {}, "versions": {"producer": 1766}}, "weightsManifest": [{"paths": ["group1-shard1of1.bin"], "weights": [{"name": "StatefulPartitionedCall/sequential/dense_2/Tensordot/Const", "shape": [1], "dtype": "int32"}, {"name": "StatefulPartitionedCall/sequential/dense_2/Tensordot/axes", "shape": [1], "dtype": "int32"}, {"name": "StatefulPartitionedCall/sequential/dense_2/Tensordot/GatherV2_1/axis", "shape": [], "dtype": "int32"}, {"name": "StatefulPartitionedCall/sequential/dense_2/Tensordot/Const_1", "shape": [1], "dtype": "int32"}, {"name": "StatefulPartitionedCall/sequential/dense_2/Tensordot/ReadVariableOp", "shape": [256, 128], "dtype": "float32"}, {"name": "StatefulPartitionedCall/sequential/dense_1/Tensordot/Const", "shape": [1], "dtype": "int32"}, {"name": "StatefulPartitionedCall/sequential/dense_1/Tensordot/axes", "shape": [1], "dtype": "int32"}, {"name": "StatefulPartitionedCall/sequential/dense_1/Tensordot/GatherV2_1/axis", "shape": [], "dtype": "int32"}, {"name": "StatefulPartitionedCall/sequential/dense_1/Tensordot/Const_1", "shape": [1], "dtype": "int32"}, {"name": "StatefulPartitionedCall/sequential/dense_1/Tensordot/ReadVariableOp", "shape": [512, 256], "dtype": "float32"}, {"name": "StatefulPartitionedCall/sequential/dense/Tensordot/Const", "shape": [1], "dtype": "int32"}, {"name": "StatefulPartitionedCall/sequential/dense/Tensordot/axes", "shape": [1], "dtype": "int32"}, {"name": "StatefulPartitionedCall/sequential/dense/Tensordot/GatherV2_1/axis", "shape": [], "dtype": "int32"}, {"name": "StatefulPartitionedCall/sequential/dense/Tensordot/Const_1", "shape": [1], "dtype": "int32"}, {"name": "StatefulPartitionedCall/sequential/dense/Tensordot/ReadVariableOp", "shape": [256, 512], "dtype": "float32"}, {"name": "StatefulPartitionedCall/sequential/conv2d/Conv2D/ReadVariableOp", "shape": [3, 3, 1, 32], "dtype": "float32"}, {"name": "StatefulPartitionedCall/sequential/conv2d/BiasAdd/ReadVariableOp", "shape": [32], "dtype": "float32"}, {"name": "StatefulPartitionedCall/sequential/conv2d_1/Conv2D/ReadVariableOp", "shape": [3, 3, 32, 64], "dtype": "float32"}, {"name": "StatefulPartitionedCall/sequential/conv2d_1/BiasAdd/ReadVariableOp", "shape": [64], "dtype": "float32"}, {"name": "StatefulPartitionedCall/sequential/conv2d_2/Conv2D/ReadVariableOp", "shape": [3, 3, 64, 128], "dtype": "float32"}, {"name": "StatefulPartitionedCall/sequential/conv2d_2/BiasAdd/ReadVariableOp", "shape": [128], "dtype": "float32"}, {"name": "StatefulPartitionedCall/sequential/conv2d_3/Conv2D/ReadVariableOp", "shape": [3, 3, 128, 128], "dtype": "float32"}, {"name": "StatefulPartitionedCall/sequential/conv2d_3/BiasAdd/ReadVariableOp", "shape": [128], "dtype": "float32"}, {"name": "StatefulPartitionedCall/sequential/conv2d_4/Conv2D/ReadVariableOp", "shape": [3, 3, 128, 128], "dtype": "float32"}, {"name": "StatefulPartitionedCall/sequential/conv2d_4/BiasAdd/ReadVariableOp", "shape": [128], "dtype": "float32"}, {"name": "StatefulPartitionedCall/sequential/conv2d_5/Conv2D/ReadVariableOp", "shape": [3, 3, 128, 256], "dtype": "float32"}, {"name": "StatefulPartitionedCall/sequential/conv2d_5/BiasAdd/ReadVariableOp", "shape": [256], "dtype": "float32"}, {"name": "StatefulPartitionedCall/sequential/dense/Tensordot/free", "shape": [3], "dtype": "int32"}, {"name": "StatefulPartitionedCall/sequential/dense/Tensordot/GatherV2/axis", "shape": [], "dtype": "int32"}, {"name": "StatefulPartitionedCall/sequential/dense/Tensordot/Const_2", "shape": [1], "dtype": "int32"}, {"name": "StatefulPartitionedCall/sequential/dense/Tensordot/concat_1/axis", "shape": [], "dtype": "int32"}, {"name": "StatefulPartitionedCall/sequential/dense/BiasAdd/ReadVariableOp", "shape": [512], "dtype": "float32"}, {"name": "StatefulPartitionedCall/sequential/dense_1/Tensordot/free", "shape": [3], "dtype": "int32"}, {"name": "StatefulPartitionedCall/sequential/dense_1/Tensordot/GatherV2/axis", "shape": [], "dtype": "int32"}, {"name": "StatefulPartitionedCall/sequential/dense_1/Tensordot/Const_2", "shape": [1], "dtype": "int32"}, {"name": "StatefulPartitionedCall/sequential/dense_1/Tensordot/concat_1/axis", "shape": [], "dtype": "int32"}, {"name": "StatefulPartitionedCall/sequential/dense_1/BiasAdd/ReadVariableOp", "shape": [256], "dtype": "float32"}, {"name": "StatefulPartitionedCall/sequential/dense_2/Tensordot/free", "shape": [3], "dtype": "int32"}, {"name": "StatefulPartitionedCall/sequential/dense_2/Tensordot/GatherV2/axis", "shape": [], "dtype": "int32"}, {"name": "StatefulPartitionedCall/sequential/dense_2/Tensordot/Const_2", "shape": [1], "dtype": "int32"}, {"name": "StatefulPartitionedCall/sequential/dense_2/Tensordot/concat_1/axis", "shape": [], "dtype": "int32"}, {"name": "StatefulPartitionedCall/sequential/dense_2/BiasAdd/ReadVariableOp", "shape": [128], "dtype": "float32"}, {"name": "StatefulPartitionedCall/sequential/flatten/Const", "shape": [2], "dtype": "int32"}, {"name": "StatefulPartitionedCall/sequential/dense_3/MatMul/ReadVariableOp", "shape": [512, 24], "dtype": "float32"}, {"name": "StatefulPartitionedCall/sequential/dense_3/BiasAdd/ReadVariableOp", "shape": [24], "dtype": "float32"}, {"name": "StatefulPartitionedCall/sequential/batch_normalization_1/FusedBatchNormV3/Scaled", "shape": [64], "dtype": "float32"}, {"name": "StatefulPartitionedCall/sequential/batch_normalization_1/FusedBatchNormV3/Offset", "shape": [64], "dtype": "float32"}, {"name": "StatefulPartitionedCall/sequential/batch_normalization/FusedBatchNormV3/Scaled", "shape": [32], "dtype": "float32"}, {"name": "StatefulPartitionedCall/sequential/batch_normalization/FusedBatchNormV3/Offset", "shape": [32], "dtype": "float32"}]}]}